…
24.03358268737793 3.0920557975769043 -14.89896011352539 Model: "model_4"
__________________________________________________________________________________________________
Layer (type)                    Output Shape         Param #     Connected to                     
==================================================================================================
Protein-Adjacency-Matrix (Input [(None, 3500, 3500)] 0                                            
__________________________________________________________________________________________________
conv1d (Conv1D)                 (None, 3498, 1024)   10753024    Protein-Adjacency-Matrix[0][0]   
__________________________________________________________________________________________________
max_pooling1d (MaxPooling1D)    (None, 1749, 1024)   0           conv1d[0][0]                     
__________________________________________________________________________________________________
conv1d_1 (Conv1D)               (None, 1747, 512)    1573376     max_pooling1d[0][0]              
__________________________________________________________________________________________________
Protein-Feature-Matrix (InputLa [(None, 3500, 13)]   0                                            
__________________________________________________________________________________________________
Ligand-Adjacency-Matrix (InputL [(None, 70, 70)]     0                                            
__________________________________________________________________________________________________
Ligand-Feature-Matrix (InputLay [(None, 70, 12)]     0                                            
__________________________________________________________________________________________________
max_pooling1d_1 (MaxPooling1D)  (None, 873, 512)     0           conv1d_1[0][0]                   
__________________________________________________________________________________________________
flatten_1 (Flatten)             (None, 45500)        0           Protein-Feature-Matrix[0][0]     
__________________________________________________________________________________________________
flatten_2 (Flatten)             (None, 4900)         0           Ligand-Adjacency-Matrix[0][0]    
__________________________________________________________________________________________________
flatten_3 (Flatten)             (None, 840)          0           Ligand-Feature-Matrix[0][0]      
__________________________________________________________________________________________________
flatten (Flatten)               (None, 446976)       0           max_pooling1d_1[0][0]            
__________________________________________________________________________________________________
dense_1 (Dense)                 (None, 256)          11648256    flatten_1[0][0]                  
__________________________________________________________________________________________________
dense_3 (Dense)                 (None, 32)           156832      flatten_2[0][0]                  
__________________________________________________________________________________________________
dense_5 (Dense)                 (None, 256)          215296      flatten_3[0][0]                  
__________________________________________________________________________________________________
dense (Dense)                   (None, 128)          57213056    flatten[0][0]                    
__________________________________________________________________________________________________
dense_2 (Dense)                 (None, 32)           8224        dense_1[0][0]                    
__________________________________________________________________________________________________
dense_4 (Dense)                 (None, 8)            264         dense_3[0][0]                    
__________________________________________________________________________________________________
dense_6 (Dense)                 (None, 64)           16448       dense_5[0][0]                    
__________________________________________________________________________________________________
concatenate (Concatenate)       (None, 232)          0           dense[0][0]                      
                                                                 dense_2[0][0]                    
                                                                 dense_4[0][0]                    
                                                                 dense_6[0][0]                    
__________________________________________________________________________________________________
dense_9 (Dense)                 (None, 64)           14912       concatenate[0][0]                
__________________________________________________________________________________________________
dense_10 (Dense)                (None, 1)            65          dense_9[0][0]                    
==================================================================================================
Total params: 81,599,753
Trainable params: 81,599,753
Non-trainable params: 0
__________________________________________________________________________________________________

10.147794723510742 1.8577762842178345 -5.563516616821289 
Model: "model_4"
__________________________________________________________________________________________________
Layer (type)                    Output Shape         Param #     Connected to                     
==================================================================================================
Protein-Adjacency-Matrix (Input [(None, 3500, 3500)] 0                                            
__________________________________________________________________________________________________
conv1d (Conv1D)                 (None, 3498, 1024)   10753024    Protein-Adjacency-Matrix[0][0]   
__________________________________________________________________________________________________
max_pooling1d (MaxPooling1D)    (None, 1749, 1024)   0           conv1d[0][0]                     
__________________________________________________________________________________________________
conv1d_1 (Conv1D)               (None, 1747, 512)    1573376     max_pooling1d[0][0]              
__________________________________________________________________________________________________
Protein-Feature-Matrix (InputLa [(None, 3500, 13)]   0                                            
__________________________________________________________________________________________________
Ligand-Adjacency-Matrix (InputL [(None, 70, 70)]     0                                            
__________________________________________________________________________________________________
Ligand-Feature-Matrix (InputLay [(None, 70, 12)]     0                                            
__________________________________________________________________________________________________
max_pooling1d_1 (MaxPooling1D)  (None, 873, 512)     0           conv1d_1[0][0]                   
__________________________________________________________________________________________________
flatten_1 (Flatten)             (None, 45500)        0           Protein-Feature-Matrix[0][0]     
__________________________________________________________________________________________________
flatten_2 (Flatten)             (None, 4900)         0           Ligand-Adjacency-Matrix[0][0]    
__________________________________________________________________________________________________
flatten_3 (Flatten)             (None, 840)          0           Ligand-Feature-Matrix[0][0]      
__________________________________________________________________________________________________
flatten (Flatten)               (None, 446976)       0           max_pooling1d_1[0][0]            
__________________________________________________________________________________________________
dense_1 (Dense)                 (None, 256)          11648256    flatten_1[0][0]                  
__________________________________________________________________________________________________
dense_3 (Dense)                 (None, 64)           313664      flatten_2[0][0]                  
__________________________________________________________________________________________________
dense_5 (Dense)                 (None, 256)          215296      flatten_3[0][0]                  
__________________________________________________________________________________________________
dense (Dense)                   (None, 512)          228852224   flatten[0][0]                    
__________________________________________________________________________________________________
dense_2 (Dense)                 (None, 32)           8224        dense_1[0][0]                    
__________________________________________________________________________________________________
dense_4 (Dense)                 (None, 16)           1040        dense_3[0][0]                    
__________________________________________________________________________________________________
dense_6 (Dense)                 (None, 64)           16448       dense_5[0][0]                    
__________________________________________________________________________________________________
concatenate (Concatenate)       (None, 624)          0           dense[0][0]                      
                                                                 dense_2[0][0]                    
                                                                 dense_4[0][0]                    
                                                                 dense_6[0][0]                    
__________________________________________________________________________________________________
dense_9 (Dense)                 (None, 64)           40000       concatenate[0][0]                
__________________________________________________________________________________________________
dense_10 (Dense)                (None, 1)            65          dense_9[0][0]                    
==================================================================================================
Total params: 253,421,617
Trainable params: 253,421,617
Non-trainable params: 0
__________________________________________________________________________________________________

4.009276866912842 0.8608143925666809 -2.278233051300049 
Model: "model_4"
__________________________________________________________________________________________________
Layer (type)                    Output Shape         Param #     Connected to                     
==================================================================================================
Protein-Adjacency-Matrix (Input [(None, 3500, 3500)] 0                                            
__________________________________________________________________________________________________
conv1d (Conv1D)                 (None, 3498, 1024)   10753024    Protein-Adjacency-Matrix[0][0]   
__________________________________________________________________________________________________
max_pooling1d (MaxPooling1D)    (None, 1749, 1024)   0           conv1d[0][0]                     
__________________________________________________________________________________________________
conv1d_1 (Conv1D)               (None, 1747, 512)    1573376     max_pooling1d[0][0]              
__________________________________________________________________________________________________
Protein-Feature-Matrix (InputLa [(None, 3500, 13)]   0                                            
__________________________________________________________________________________________________
Ligand-Adjacency-Matrix (InputL [(None, 70, 70)]     0                                            
__________________________________________________________________________________________________
Ligand-Feature-Matrix (InputLay [(None, 70, 12)]     0                                            
__________________________________________________________________________________________________
max_pooling1d_1 (MaxPooling1D)  (None, 873, 512)     0           conv1d_1[0][0]                   
__________________________________________________________________________________________________
flatten_1 (Flatten)             (None, 45500)        0           Protein-Feature-Matrix[0][0]     
__________________________________________________________________________________________________
flatten_2 (Flatten)             (None, 4900)         0           Ligand-Adjacency-Matrix[0][0]    
__________________________________________________________________________________________________
flatten_3 (Flatten)             (None, 840)          0           Ligand-Feature-Matrix[0][0]      
__________________________________________________________________________________________________
flatten (Flatten)               (None, 446976)       0           max_pooling1d_1[0][0]            
__________________________________________________________________________________________________
dense_1 (Dense)                 (None, 256)          11648256    flatten_1[0][0]                  
__________________________________________________________________________________________________
dense_3 (Dense)                 (None, 64)           313664      flatten_2[0][0]                  
__________________________________________________________________________________________________
dense_5 (Dense)                 (None, 256)          215296      flatten_3[0][0]                  
__________________________________________________________________________________________________
dense (Dense)                   (None, 1024)         457704448   flatten[0][0]                    
__________________________________________________________________________________________________
dense_2 (Dense)                 (None, 32)           8224        dense_1[0][0]                    
__________________________________________________________________________________________________
dense_4 (Dense)                 (None, 16)           1040        dense_3[0][0]                    
__________________________________________________________________________________________________
dense_6 (Dense)                 (None, 64)           16448       dense_5[0][0]                    
__________________________________________________________________________________________________
concatenate (Concatenate)       (None, 1136)         0           dense[0][0]                      
                                                                 dense_2[0][0]                    
                                                                 dense_4[0][0]                    
                                                                 dense_6[0][0]                    
__________________________________________________________________________________________________
dense_7 (Dense)                 (None, 1024)         1164288     concatenate[0][0]                
__________________________________________________________________________________________________
dense_8 (Dense)                 (None, 512)          524800      dense_7[0][0]                    
__________________________________________________________________________________________________
dense_9 (Dense)                 (None, 64)           32832       dense_8[0][0]                    
__________________________________________________________________________________________________
dense_10 (Dense)                (None, 1)            65          dense_9[0][0]                    
==================================================================================================
Total params: 483,955,761
Trainable params: 483,955,761
Non-trainable params: 0
__________________________________________________________________________________________________

1.3413727283477783 0.4125688970088959 -0.5501922369003296 
Model: "model_4"
__________________________________________________________________________________________________
Layer (type)                    Output Shape         Param #     Connected to                     
==================================================================================================
Protein-Adjacency-Matrix (Input [(None, 3500, 3500)] 0                                            
__________________________________________________________________________________________________
conv1d (Conv1D)                 (None, 3498, 1024)   10753024    Protein-Adjacency-Matrix[0][0]   
__________________________________________________________________________________________________
max_pooling1d (MaxPooling1D)    (None, 1749, 1024)   0           conv1d[0][0]                     
__________________________________________________________________________________________________
conv1d_1 (Conv1D)               (None, 1747, 512)    1573376     max_pooling1d[0][0]              
__________________________________________________________________________________________________
max_pooling1d_1 (MaxPooling1D)  (None, 873, 512)     0           conv1d_1[0][0]                   
__________________________________________________________________________________________________
conv1d_2 (Conv1D)               (None, 871, 256)     393472      max_pooling1d_1[0][0]            
__________________________________________________________________________________________________
max_pooling1d_2 (MaxPooling1D)  (None, 435, 256)     0           conv1d_2[0][0]                   
__________________________________________________________________________________________________
Protein-Feature-Matrix (InputLa [(None, 3500, 13)]   0                                            
__________________________________________________________________________________________________
Ligand-Adjacency-Matrix (InputL [(None, 70, 70)]     0                                            
__________________________________________________________________________________________________
Ligand-Feature-Matrix (InputLay [(None, 70, 12)]     0                                            
__________________________________________________________________________________________________
flatten (Flatten)               (None, 111360)       0           max_pooling1d_2[0][0]            
__________________________________________________________________________________________________
flatten_1 (Flatten)             (None, 45500)        0           Protein-Feature-Matrix[0][0]     
__________________________________________________________________________________________________
flatten_2 (Flatten)             (None, 4900)         0           Ligand-Adjacency-Matrix[0][0]    
__________________________________________________________________________________________________
flatten_3 (Flatten)             (None, 840)          0           Ligand-Feature-Matrix[0][0]      
__________________________________________________________________________________________________
dense (Dense)                   (None, 1024)         114033664   flatten[0][0]                    
__________________________________________________________________________________________________
dense_2 (Dense)                 (None, 512)          23296512    flatten_1[0][0]                  
__________________________________________________________________________________________________
dense_4 (Dense)                 (None, 64)           313664      flatten_2[0][0]                  
__________________________________________________________________________________________________
dense_6 (Dense)                 (None, 256)          215296      flatten_3[0][0]                  
__________________________________________________________________________________________________
dense_1 (Dense)                 (None, 512)          524800      dense[0][0]                      
__________________________________________________________________________________________________
dense_3 (Dense)                 (None, 64)           32832       dense_2[0][0]                    
__________________________________________________________________________________________________
dense_5 (Dense)                 (None, 16)           1040        dense_4[0][0]                    
__________________________________________________________________________________________________
dense_7 (Dense)                 (None, 64)           16448       dense_6[0][0]                    
__________________________________________________________________________________________________
concatenate (Concatenate)       (None, 656)          0           dense_1[0][0]                    
                                                                 dense_3[0][0]                    
                                                                 dense_5[0][0]                    
                                                                 dense_7[0][0]                    
__________________________________________________________________________________________________
dense_8 (Dense)                 (None, 1024)         672768      concatenate[0][0]                
__________________________________________________________________________________________________
dense_9 (Dense)                 (None, 512)          524800      dense_8[0][0]                    
__________________________________________________________________________________________________
dense_10 (Dense)                (None, 64)           32832       dense_9[0][0]                    
__________________________________________________________________________________________________
dense_11 (Dense)                (None, 1)            65          dense_10[0][0]                   
==================================================================================================
Total params: 152,384,593
Trainable params: 152,384,593
Non-trainable params: 0
__________________________________________________________________________________________________
Killed
Model: "model_4"
__________________________________________________________________________________________________
Layer (type)                    Output Shape         Param #     Connected to                     
==================================================================================================
Protein-Adjacency-Matrix (Input [(None, 3500, 3500)] 0                                            
__________________________________________________________________________________________________
conv1d (Conv1D)                 (None, 3498, 1024)   10753024    Protein-Adjacency-Matrix[0][0]   
__________________________________________________________________________________________________
max_pooling1d (MaxPooling1D)    (None, 1749, 1024)   0           conv1d[0][0]                     
__________________________________________________________________________________________________
conv1d_1 (Conv1D)               (None, 1747, 512)    1573376     max_pooling1d[0][0]              
__________________________________________________________________________________________________
max_pooling1d_1 (MaxPooling1D)  (None, 873, 512)     0           conv1d_1[0][0]                   
__________________________________________________________________________________________________
conv1d_2 (Conv1D)               (None, 871, 256)     393472      max_pooling1d_1[0][0]            
__________________________________________________________________________________________________
max_pooling1d_2 (MaxPooling1D)  (None, 435, 256)     0           conv1d_2[0][0]                   
__________________________________________________________________________________________________
Protein-Feature-Matrix (InputLa [(None, 3500, 13)]   0                                            
__________________________________________________________________________________________________
Ligand-Adjacency-Matrix (InputL [(None, 70, 70)]     0                                            
__________________________________________________________________________________________________
Ligand-Feature-Matrix (InputLay [(None, 70, 12)]     0                                            
__________________________________________________________________________________________________
flatten (Flatten)               (None, 111360)       0           max_pooling1d_2[0][0]            
__________________________________________________________________________________________________
flatten_1 (Flatten)             (None, 45500)        0           Protein-Feature-Matrix[0][0]     
__________________________________________________________________________________________________
flatten_2 (Flatten)             (None, 4900)         0           Ligand-Adjacency-Matrix[0][0]    
__________________________________________________________________________________________________
flatten_3 (Flatten)             (None, 840)          0           Ligand-Feature-Matrix[0][0]      
__________________________________________________________________________________________________
dense (Dense)                   (None, 1024)         114033664   flatten[0][0]                    
__________________________________________________________________________________________________
dense_2 (Dense)                 (None, 512)          23296512    flatten_1[0][0]                  
__________________________________________________________________________________________________
dense_4 (Dense)                 (None, 64)           313664      flatten_2[0][0]                  
__________________________________________________________________________________________________
dense_6 (Dense)                 (None, 256)          215296      flatten_3[0][0]                  
__________________________________________________________________________________________________
dense_1 (Dense)                 (None, 512)          524800      dense[0][0]                      
__________________________________________________________________________________________________
dense_3 (Dense)                 (None, 64)           32832       dense_2[0][0]                    
__________________________________________________________________________________________________
dense_5 (Dense)                 (None, 16)           1040        dense_4[0][0]                    
__________________________________________________________________________________________________
dense_7 (Dense)                 (None, 64)           16448       dense_6[0][0]                    
__________________________________________________________________________________________________
concatenate (Concatenate)       (None, 656)          0           dense_1[0][0]                    
                                                                 dense_3[0][0]                    
                                                                 dense_5[0][0]                    
                                                                 dense_7[0][0]                    
__________________________________________________________________________________________________
dense_8 (Dense)                 (None, 1024)         672768      concatenate[0][0]                
__________________________________________________________________________________________________
dense_9 (Dense)                 (None, 512)          524800      dense_8[0][0]                    
__________________________________________________________________________________________________
dense_10 (Dense)                (None, 64)           32832       dense_9[0][0]                    
__________________________________________________________________________________________________
dense_11 (Dense)                (None, 1)            65          dense_10[0][0]                   
==================================================================================================
Total params: 152,384,593
Trainable params: 152,384,593
Non-trainable params: 0
__________________________________________________________________________________________________

Model: "model_4"
__________________________________________________________________________________________________
Layer (type)                    Output Shape         Param #     Connected to                     
==================================================================================================
Protein-Adjacency-Matrix (Input [(None, 3500, 3500)] 0                                            
__________________________________________________________________________________________________
conv1d (Conv1D)                 (None, 3498, 1024)   10753024    Protein-Adjacency-Matrix[0][0]   
__________________________________________________________________________________________________
max_pooling1d (MaxPooling1D)    (None, 1749, 1024)   0           conv1d[0][0]                     
__________________________________________________________________________________________________
conv1d_1 (Conv1D)               (None, 1747, 512)    1573376     max_pooling1d[0][0]              
__________________________________________________________________________________________________
max_pooling1d_1 (MaxPooling1D)  (None, 873, 512)     0           conv1d_1[0][0]                   
__________________________________________________________________________________________________
conv1d_2 (Conv1D)               (None, 871, 256)     393472      max_pooling1d_1[0][0]            
__________________________________________________________________________________________________
max_pooling1d_2 (MaxPooling1D)  (None, 435, 256)     0           conv1d_2[0][0]                   
__________________________________________________________________________________________________
Protein-Feature-Matrix (InputLa [(None, 3500, 13)]   0                                            
__________________________________________________________________________________________________
Ligand-Adjacency-Matrix (InputL [(None, 70, 70)]     0                                            
__________________________________________________________________________________________________
Ligand-Feature-Matrix (InputLay [(None, 70, 12)]     0                                            
__________________________________________________________________________________________________
flatten (Flatten)               (None, 111360)       0           max_pooling1d_2[0][0]            
__________________________________________________________________________________________________
flatten_1 (Flatten)             (None, 45500)        0           Protein-Feature-Matrix[0][0]     
__________________________________________________________________________________________________
flatten_2 (Flatten)             (None, 4900)         0           Ligand-Adjacency-Matrix[0][0]    
__________________________________________________________________________________________________
flatten_3 (Flatten)             (None, 840)          0           Ligand-Feature-Matrix[0][0]      
__________________________________________________________________________________________________
dense (Dense)                   (None, 1024)         114033664   flatten[0][0]                    
__________________________________________________________________________________________________
dense_2 (Dense)                 (None, 512)          23296512    flatten_1[0][0]                  
__________________________________________________________________________________________________
dense_4 (Dense)                 (None, 64)           313664      flatten_2[0][0]                  
__________________________________________________________________________________________________
dense_6 (Dense)                 (None, 256)          215296      flatten_3[0][0]                  
__________________________________________________________________________________________________
dense_1 (Dense)                 (None, 512)          524800      dense[0][0]                      
__________________________________________________________________________________________________
dense_3 (Dense)                 (None, 64)           32832       dense_2[0][0]                    
__________________________________________________________________________________________________
dense_5 (Dense)                 (None, 16)           1040        dense_4[0][0]                    
__________________________________________________________________________________________________
dense_7 (Dense)                 (None, 64)           16448       dense_6[0][0]                    
__________________________________________________________________________________________________
concatenate (Concatenate)       (None, 656)          0           dense_1[0][0]                    
                                                                 dense_3[0][0]                    
                                                                 dense_5[0][0]                    
                                                                 dense_7[0][0]                    
__________________________________________________________________________________________________
dense_8 (Dense)                 (None, 1024)         672768      concatenate[0][0]                
__________________________________________________________________________________________________
dense_9 (Dense)                 (None, 512)          524800      dense_8[0][0]                    
__________________________________________________________________________________________________
dense_10 (Dense)                (None, 64)           32832       dense_9[0][0]                    
__________________________________________________________________________________________________
dense_11 (Dense)                (None, 1)            65          dense_10[0][0]                   
==================================================================================================
Total params: 152,384,593
Trainable params: 152,384,593
Non-trainable params: 0
__________________________________________________________________________________________________

1.0033252239227295 0.32573312520980835 -0.6474645137786865 
Model: "model_4"
__________________________________________________________________________________________________
Layer (type)                    Output Shape         Param #     Connected to                     
==================================================================================================
Protein-Adjacency-Matrix (Input [(None, 3500, 3500)] 0                                            
__________________________________________________________________________________________________
conv1d (Conv1D)                 (None, 3498, 1024)   10753024    Protein-Adjacency-Matrix[0][0]   
__________________________________________________________________________________________________
max_pooling1d (MaxPooling1D)    (None, 1749, 1024)   0           conv1d[0][0]                     
__________________________________________________________________________________________________
conv1d_1 (Conv1D)               (None, 1747, 512)    1573376     max_pooling1d[0][0]              
__________________________________________________________________________________________________
max_pooling1d_1 (MaxPooling1D)  (None, 873, 512)     0           conv1d_1[0][0]                   
__________________________________________________________________________________________________
conv1d_2 (Conv1D)               (None, 871, 256)     393472      max_pooling1d_1[0][0]            
__________________________________________________________________________________________________
max_pooling1d_2 (MaxPooling1D)  (None, 435, 256)     0           conv1d_2[0][0]                   
__________________________________________________________________________________________________
Protein-Feature-Matrix (InputLa [(None, 3500, 13)]   0                                            
__________________________________________________________________________________________________
Ligand-Adjacency-Matrix (InputL [(None, 70, 70)]     0                                            
__________________________________________________________________________________________________
Ligand-Feature-Matrix (InputLay [(None, 70, 12)]     0                                            
__________________________________________________________________________________________________
flatten (Flatten)               (None, 111360)       0           max_pooling1d_2[0][0]            
__________________________________________________________________________________________________
flatten_1 (Flatten)             (None, 45500)        0           Protein-Feature-Matrix[0][0]     
__________________________________________________________________________________________________
flatten_2 (Flatten)             (None, 4900)         0           Ligand-Adjacency-Matrix[0][0]    
__________________________________________________________________________________________________
flatten_3 (Flatten)             (None, 840)          0           Ligand-Feature-Matrix[0][0]      
__________________________________________________________________________________________________
dense (Dense)                   (None, 1024)         114033664   flatten[0][0]                    
__________________________________________________________________________________________________
dense_2 (Dense)                 (None, 512)          23296512    flatten_1[0][0]                  
__________________________________________________________________________________________________
dense_4 (Dense)                 (None, 64)           313664      flatten_2[0][0]                  
__________________________________________________________________________________________________
dense_6 (Dense)                 (None, 256)          215296      flatten_3[0][0]                  
__________________________________________________________________________________________________
dense_1 (Dense)                 (None, 512)          524800      dense[0][0]                      
__________________________________________________________________________________________________
dense_3 (Dense)                 (None, 64)           32832       dense_2[0][0]                    
__________________________________________________________________________________________________
dense_5 (Dense)                 (None, 16)           1040        dense_4[0][0]                    
__________________________________________________________________________________________________
dense_7 (Dense)                 (None, 64)           16448       dense_6[0][0]                    
__________________________________________________________________________________________________
concatenate (Concatenate)       (None, 656)          0           dense_1[0][0]                    
                                                                 dense_3[0][0]                    
                                                                 dense_5[0][0]                    
                                                                 dense_7[0][0]                    
__________________________________________________________________________________________________
dense_8 (Dense)                 (None, 1024)         672768      concatenate[0][0]                
__________________________________________________________________________________________________
dense_9 (Dense)                 (None, 512)          524800      dense_8[0][0]                    
__________________________________________________________________________________________________
dense_10 (Dense)                (None, 64)           32832       dense_9[0][0]                    
__________________________________________________________________________________________________
dense_11 (Dense)                (None, 1)            65          dense_10[0][0]                   
 Layer (type)                   Output Shape         Param #     Connected to                     
==================================================================================================
 Protein-Adjacency-Matrix (Inpu  [(None, 3500, 3500)  0          []                               
 tLayer)                        ]                                                                 
                                                                                                  
 conv1d (Conv1D)                (None, 3498, 1024)   10753024    ['Protein-Adjacency-Matrix[0][0]'
                                                                 ]                                
                                                                                                  
 max_pooling1d (MaxPooling1D)   (None, 1749, 1024)   0           ['conv1d[0][0]']                 
                                                                                                  
 conv1d_1 (Conv1D)              (None, 1747, 512)    1573376     ['max_pooling1d[0][0]']          
                                                                                                  
 max_pooling1d_1 (MaxPooling1D)  (None, 873, 512)    0           ['conv1d_1[0][0]']               
                                                                                                  
 conv1d_2 (Conv1D)              (None, 871, 256)     393472      ['max_pooling1d_1[0][0]']        
                                                                                                  
 max_pooling1d_2 (MaxPooling1D)  (None, 435, 256)    0           ['conv1d_2[0][0]']               
                                                                                                  
 Protein-Feature-Matrix (InputL  [(None, 3500, 13)]  0           []                               
 ayer)                                                                                            
                                                                                                  
 Ligand-Adjacency-Matrix (Input  [(None, 70, 70)]    0           []                               
 Layer)                                                                                           
                                                                                                  
 Ligand-Feature-Matrix (InputLa  [(None, 70, 12)]    0           []                               
 yer)                                                                                             
                                                                                                  
 flatten (Flatten)              (None, 111360)       0           ['max_pooling1d_2[0][0]']        
                                                                                                  
 flatten_1 (Flatten)            (None, 45500)        0           ['Protein-Feature-Matrix[0][0]'] 
                                                                                                  
 flatten_2 (Flatten)            (None, 4900)         0           ['Ligand-Adjacency-Matrix[0][0]']
                                                                                                  
 flatten_3 (Flatten)            (None, 840)          0           ['Ligand-Feature-Matrix[0][0]']  
                                                                                                  
 dense (Dense)                  (None, 1024)         114033664   ['flatten[0][0]']                
                                                                                                  
 dense_2 (Dense)                (None, 512)          23296512    ['flatten_1[0][0]']              
                                                                                                  
 dense_4 (Dense)                (None, 64)           313664      ['flatten_2[0][0]']              
                                                                                                  
 dense_6 (Dense)                (None, 256)          215296      ['flatten_3[0][0]']              
                                                                                                  
 dense_1 (Dense)                (None, 512)          524800      ['dense[0][0]']                  
                                                                                                  
 dense_3 (Dense)                (None, 64)           32832       ['dense_2[0][0]']                
                                                                                                  
 dense_5 (Dense)                (None, 16)           1040        ['dense_4[0][0]']                
                                                                                                  
 dense_7 (Dense)                (None, 64)           16448       ['dense_6[0][0]']                
                                                                                                  
 concatenate (Concatenate)      (None, 656)          0           ['dense_1[0][0]',                
                                                                  'dense_3[0][0]',                
                                                                  'dense_5[0][0]',                
                                                                  'dense_7[0][0]']                
                                                                                                  
 dense_8 (Dense)                (None, 1024)         672768      ['concatenate[0][0]']            
                                                                                                  
 dense_9 (Dense)                (None, 512)          524800      ['dense_8[0][0]']                
                                                                                                  
 dense_10 (Dense)               (None, 64)           32832       ['dense_9[0][0]']                
                                                                                                  
 dense_11 (Dense)               (None, 1)            65          ['dense_10[0][0]']               
                                                                                                  
==================================================================================================
Total params: 152,384,593
Trainable params: 152,384,593
Non-trainable params: 0
__________________________________________________________________________________________________
…
2.1072113513946533 0.6346498131752014 -0.4387779235839844 
Model: "model_4"
__________________________________________________________________________________________________
Layer (type)                    Output Shape         Param #     Connected to                     
==================================================================================================
Protein-Adjacency-Matrix (Input [(None, 3500, 3500)] 0                                            
__________________________________________________________________________________________________
conv1d (Conv1D)                 (None, 3498, 1024)   10753024    Protein-Adjacency-Matrix[0][0]   
__________________________________________________________________________________________________
max_pooling1d (MaxPooling1D)    (None, 1749, 1024)   0           conv1d[0][0]                     
__________________________________________________________________________________________________
conv1d_1 (Conv1D)               (None, 1747, 512)    1573376     max_pooling1d[0][0]              
__________________________________________________________________________________________________
max_pooling1d_1 (MaxPooling1D)  (None, 873, 512)     0           conv1d_1[0][0]                   
__________________________________________________________________________________________________
conv1d_2 (Conv1D)               (None, 871, 256)     393472      max_pooling1d_1[0][0]            
__________________________________________________________________________________________________
max_pooling1d_2 (MaxPooling1D)  (None, 435, 256)     0           conv1d_2[0][0]                   
__________________________________________________________________________________________________
Protein-Feature-Matrix (InputLa [(None, 3500, 13)]   0                                            
__________________________________________________________________________________________________
Ligand-Adjacency-Matrix (InputL [(None, 70, 70)]     0                                            
__________________________________________________________________________________________________
Ligand-Feature-Matrix (InputLay [(None, 70, 12)]     0                                            
__________________________________________________________________________________________________
flatten (Flatten)               (None, 111360)       0           max_pooling1d_2[0][0]            
__________________________________________________________________________________________________
flatten_1 (Flatten)             (None, 45500)        0           Protein-Feature-Matrix[0][0]     
__________________________________________________________________________________________________
flatten_2 (Flatten)             (None, 4900)         0           Ligand-Adjacency-Matrix[0][0]    
__________________________________________________________________________________________________
flatten_3 (Flatten)             (None, 840)          0           Ligand-Feature-Matrix[0][0]      
__________________________________________________________________________________________________
dense (Dense)                   (None, 1024)         114033664   flatten[0][0]                    
__________________________________________________________________________________________________
dense_2 (Dense)                 (None, 512)          23296512    flatten_1[0][0]                  
__________________________________________________________________________________________________
dense_4 (Dense)                 (None, 64)           313664      flatten_2[0][0]                  
__________________________________________________________________________________________________
dense_6 (Dense)                 (None, 256)          215296      flatten_3[0][0]                  
__________________________________________________________________________________________________
dense_1 (Dense)                 (None, 512)          524800      dense[0][0]                      
__________________________________________________________________________________________________
dense_3 (Dense)                 (None, 64)           32832       dense_2[0][0]                    
__________________________________________________________________________________________________
dense_5 (Dense)                 (None, 16)           1040        dense_4[0][0]                    
__________________________________________________________________________________________________
dense_7 (Dense)                 (None, 64)           16448       dense_6[0][0]                    
__________________________________________________________________________________________________
concatenate (Concatenate)       (None, 656)          0           dense_1[0][0]                    
                                                                 dense_3[0][0]                    
                                                                 dense_5[0][0]                    
                                                                 dense_7[0][0]                    
__________________________________________________________________________________________________
dense_8 (Dense)                 (None, 1024)         672768      concatenate[0][0]                
__________________________________________________________________________________________________
dense_9 (Dense)                 (None, 512)          524800      dense_8[0][0]                    
__________________________________________________________________________________________________
dense_10 (Dense)                (None, 64)           32832       dense_9[0][0]                    
__________________________________________________________________________________________________
dense_11 (Dense)                (None, 1)            65          dense_10[0][0]                   
==================================================================================================
Total params: 152,384,593
Trainable params: 152,384,593
Non-trainable params: 0
__________________________________________________________________________________________________

2.5187747478485107 0.6501362323760986 -9.118782043457031 
Model: "model_4"
__________________________________________________________________________________________________
…
2.3129167556762695 0.6189033389091492 -1.3687344789505005 
Model: "model_4"
__________________________________________________________________________________________________
Layer (type)                    Output Shape         Param #     Connected to                     
==================================================================================================
Protein-Adjacency-Matrix (Input [(None, 1500, 1500)] 0                                            
__________________________________________________________________________________________________
conv1d (Conv1D)                 (None, 1498, 1024)   4609024     Protein-Adjacency-Matrix[0][0]   
__________________________________________________________________________________________________
max_pooling1d (MaxPooling1D)    (None, 749, 1024)    0           conv1d[0][0]                     
__________________________________________________________________________________________________
conv1d_1 (Conv1D)               (None, 747, 512)     1573376     max_pooling1d[0][0]              
__________________________________________________________________________________________________
max_pooling1d_1 (MaxPooling1D)  (None, 373, 512)     0           conv1d_1[0][0]                   
__________________________________________________________________________________________________
conv1d_2 (Conv1D)               (None, 371, 256)     393472      max_pooling1d_1[0][0]            
__________________________________________________________________________________________________
max_pooling1d_2 (MaxPooling1D)  (None, 185, 256)     0           conv1d_2[0][0]                   
__________________________________________________________________________________________________
Protein-Feature-Matrix (InputLa [(None, 1500, 13)]   0                                            
__________________________________________________________________________________________________
Ligand-Adjacency-Matrix (InputL [(None, 70, 70)]     0                                            
__________________________________________________________________________________________________
Ligand-Feature-Matrix (InputLay [(None, 70, 12)]     0                                            
__________________________________________________________________________________________________
flatten (Flatten)               (None, 47360)        0           max_pooling1d_2[0][0]            
__________________________________________________________________________________________________
flatten_1 (Flatten)             (None, 19500)        0           Protein-Feature-Matrix[0][0]     
__________________________________________________________________________________________________
flatten_2 (Flatten)             (None, 4900)         0           Ligand-Adjacency-Matrix[0][0]    
__________________________________________________________________________________________________
flatten_3 (Flatten)             (None, 840)          0           Ligand-Feature-Matrix[0][0]      
__________________________________________________________________________________________________
dense (Dense)                   (None, 1024)         48497664    flatten[0][0]                    
__________________________________________________________________________________________________
dense_2 (Dense)                 (None, 512)          9984512     flatten_1[0][0]                  
__________________________________________________________________________________________________
dense_4 (Dense)                 (None, 64)           313664      flatten_2[0][0]                  
__________________________________________________________________________________________________
dense_6 (Dense)                 (None, 256)          215296      flatten_3[0][0]                  
__________________________________________________________________________________________________
dense_1 (Dense)                 (None, 512)          524800      dense[0][0]                      
__________________________________________________________________________________________________
dense_3 (Dense)                 (None, 64)           32832       dense_2[0][0]                    
__________________________________________________________________________________________________
dense_5 (Dense)                 (None, 16)           1040        dense_4[0][0]                    
__________________________________________________________________________________________________
dense_7 (Dense)                 (None, 64)           16448       dense_6[0][0]                    
__________________________________________________________________________________________________
concatenate (Concatenate)       (None, 656)          0           dense_1[0][0]                    
                                                                 dense_3[0][0]                    
                                                                 dense_5[0][0]                    
                                                                 dense_7[0][0]                    
__________________________________________________________________________________________________
dense_8 (Dense)                 (None, 1024)         672768      concatenate[0][0]                
__________________________________________________________________________________________________
dense_9 (Dense)                 (None, 512)          524800      dense_8[0][0]                    
__________________________________________________________________________________________________
dense_10 (Dense)                (None, 64)           32832       dense_9[0][0]                    
__________________________________________________________________________________________________
dense_11 (Dense)                (None, 1)            65          dense_10[0][0]                   
==================================================================================================
Total params: 67,392,593
Trainable params: 67,392,593
Non-trainable params: 0
__________________________________________________________________________________________________

0.7857056856155396 0.24644924700260162 -0.286423921585083 
1.4873688220977783 0.42747458815574646 -0.3440999984741211 
Model: "model_4"
__________________________________________________________________________________________________
 Layer (type)                   Output Shape         Param #     Connected to                     
==================================================================================================
 Protein-Adjacency-Matrix (Inpu  [(None, 3500, 3500)  0          []                               
 tLayer)                        ]                                                                 
                                                                                                  
 conv1d (Conv1D)                (None, 3498, 1024)   10753024    ['Protein-Adjacency-Matrix[0][0]'
                                                                 ]                                
                                                                                                  
 max_pooling1d (MaxPooling1D)   (None, 1749, 1024)   0           ['conv1d[0][0]']                 
                                                                                                  
 conv1d_1 (Conv1D)              (None, 1747, 512)    1573376     ['max_pooling1d[0][0]']          
                                                                                                  
 max_pooling1d_1 (MaxPooling1D)  (None, 873, 512)    0           ['conv1d_1[0][0]']               
                                                                                                  
 conv1d_2 (Conv1D)              (None, 871, 256)     393472      ['max_pooling1d_1[0][0]']        
                                                                                                  
 max_pooling1d_2 (MaxPooling1D)  (None, 435, 256)    0           ['conv1d_2[0][0]']               
                                                                                                  
 Protein-Feature-Matrix (InputL  [(None, 3500, 13)]  0           []                               
 ayer)                                                                                            
                                                                                                  
 Ligand-Adjacency-Matrix (Input  [(None, 70, 70)]    0           []                               
 Layer)                                                                                           
                                                                                                  
 Ligand-Feature-Matrix (InputLa  [(None, 70, 12)]    0           []                               
 yer)                                                                                             
                                                                                                  
 flatten (Flatten)              (None, 111360)       0           ['max_pooling1d_2[0][0]']        
                                                                                                  
 flatten_1 (Flatten)            (None, 45500)        0           ['Protein-Feature-Matrix[0][0]'] 
                                                                                                  
 flatten_2 (Flatten)            (None, 4900)         0           ['Ligand-Adjacency-Matrix[0][0]']
                                                                                                  
 flatten_3 (Flatten)            (None, 840)          0           ['Ligand-Feature-Matrix[0][0]']  
                                                                                                  
 dense (Dense)                  (None, 1024)         114033664   ['flatten[0][0]']                
                                                                                                  
 dense_2 (Dense)                (None, 512)          23296512    ['flatten_1[0][0]']              
                                                                                                  
 dense_4 (Dense)                (None, 64)           313664      ['flatten_2[0][0]']              
                                                                                                  
 dense_6 (Dense)                (None, 256)          215296      ['flatten_3[0][0]']              
                                                                                                  
 dense_1 (Dense)                (None, 512)          524800      ['dense[0][0]']                  
                                                                                                  
 dense_3 (Dense)                (None, 64)           32832       ['dense_2[0][0]']                
                                                                                                  
 dense_5 (Dense)                (None, 16)           1040        ['dense_4[0][0]']                
                                                                                                  
 dense_7 (Dense)                (None, 64)           16448       ['dense_6[0][0]']                
                                                                                                  
 concatenate (Concatenate)      (None, 656)          0           ['dense_1[0][0]',                
                                                                  'dense_3[0][0]',                
                                                                  'dense_5[0][0]',                
                                                                  'dense_7[0][0]']                
                                                                                                  
 dense_8 (Dense)                (None, 1024)         672768      ['concatenate[0][0]']            
                                                                                                  
 dense_9 (Dense)                (None, 512)          524800      ['dense_8[0][0]']                
                                                                                                  
 dense_10 (Dense)               (None, 64)           32832       ['dense_9[0][0]']                
                                                                                                  
 dense_11 (Dense)               (None, 1)            65          ['dense_10[0][0]']               
                                                                                                  
==================================================================================================
Total params: 152,384,593
Trainable params: 152,384,593
Non-trainable params: 0
__________________________________________________________________________________________________

2.2793731689453125 0.5797994136810303 -1.1225786209106445 
Model: "model_9"
__________________________________________________________________________________________________
 Layer (type)                   Output Shape         Param #     Connected to                     
==================================================================================================
 Protein-Adjacency-Matrix (Inpu  [(None, 3500, 3500)  0          []                               
 tLayer)                        ]                                                                 
                                                                                                  
 conv1d_3 (Conv1D)              (None, 3498, 1024)   10753024    ['Protein-Adjacency-Matrix[0][0]'
                                                                 ]                                
                                                                                                  
 max_pooling1d_3 (MaxPooling1D)  (None, 1749, 1024)  0           ['conv1d_3[0][0]']               
                                                                                                  
 conv1d_4 (Conv1D)              (None, 1747, 512)    1573376     ['max_pooling1d_3[0][0]']        
                                                                                                  
 max_pooling1d_4 (MaxPooling1D)  (None, 873, 512)    0           ['conv1d_4[0][0]']               
                                                                                                  
 conv1d_5 (Conv1D)              (None, 871, 256)     393472      ['max_pooling1d_4[0][0]']        
                                                                                                  
 max_pooling1d_5 (MaxPooling1D)  (None, 435, 256)    0           ['conv1d_5[0][0]']               
                                                                                                  
 Protein-Feature-Matrix (InputL  [(None, 3500, 13)]  0           []                               
 ayer)                                                                                            
                                                                                                  
…
 Ligand-Adjacency-Matrix (Input  [(None, 70, 70)]    0           []                               
 Layer)                                                                                           
                                                                                                  
 Ligand-Feature-Matrix (InputLa  [(None, 70, 12)]    0           []                               
 yer)                                                                                             
                                                                                                  
 flatten_8 (Flatten)            (None, 111360)       0           ['max_pooling1d_8[0][0]']        
                                                                                                  
 flatten_9 (Flatten)            (None, 45500)        0           ['Protein-Feature-Matrix[0][0]'] 
                                                                                                  
 flatten_10 (Flatten)           (None, 4900)         0           ['Ligand-Adjacency-Matrix[0][0]']
                                                                                                  
 flatten_11 (Flatten)           (None, 840)          0           ['Ligand-Feature-Matrix[0][0]']  
                                                                                                  
 dense_24 (Dense)               (None, 1024)         114033664   ['flatten_8[0][0]']              
                                                                                                  
 dense_26 (Dense)               (None, 512)          23296512    ['flatten_9[0][0]']              
                                                                                                  
 dense_28 (Dense)               (None, 64)           313664      ['flatten_10[0][0]']             
                                                                                                  
 dense_30 (Dense)               (None, 256)          215296      ['flatten_11[0][0]']             
                                                                                                  
 dense_25 (Dense)               (None, 512)          524800      ['dense_24[0][0]']               
                                                                                                  
 dense_27 (Dense)               (None, 64)           32832       ['dense_26[0][0]']               
                                                                                                  
 dense_29 (Dense)               (None, 16)           1040        ['dense_28[0][0]']               
                                                                                                  
 dense_31 (Dense)               (None, 64)           16448       ['dense_30[0][0]']               
                                                                                                  
 concatenate_2 (Concatenate)    (None, 656)          0           ['dense_25[0][0]',               
                                                                  'dense_27[0][0]',               
                                                                  'dense_29[0][0]',               
                                                                  'dense_31[0][0]']               
                                                                                                  
 dense_32 (Dense)               (None, 1024)         672768      ['concatenate_2[0][0]']          
                                                                                                  
 dense_33 (Dense)               (None, 512)          524800      ['dense_32[0][0]']               
                                                                                                  
 dense_34 (Dense)               (None, 64)           32832       ['dense_33[0][0]']               
                                                                                                  
 dense_35 (Dense)               (None, 1)            65          ['dense_34[0][0]']               
                                                                                                  
==================================================================================================
Total params: 152,384,593
Trainable params: 152,384,593
Non-trainable params: 0
__________________________________________________________________________________________________

1.8528364896774292 0.6939882636070251 -2.344233512878418 
Model: "model_4"
__________________________________________________________________________________________________
 Layer (type)                   Output Shape         Param #     Connected to                     
==================================================================================================
 Protein-Adjacency-Matrix (Inpu  [(None, 1500, 1500)  0          []                               
 tLayer)                        ]                                                                 
                                                                                                  
 conv1d (Conv1D)                (None, 1498, 1024)   4609024     ['Protein-Adjacency-Matrix[0][0]'
                                                                 ]                                
                                                                                                  
 max_pooling1d (MaxPooling1D)   (None, 749, 1024)    0           ['conv1d[0][0]']                 
                                                                                                  
 conv1d_1 (Conv1D)              (None, 747, 512)     1573376     ['max_pooling1d[0][0]']          
                                                                                                  
 max_pooling1d_1 (MaxPooling1D)  (None, 373, 512)    0           ['conv1d_1[0][0]']               
                                                                                                  
 conv1d_2 (Conv1D)              (None, 371, 256)     393472      ['max_pooling1d_1[0][0]']        
                                                                                                  
 max_pooling1d_2 (MaxPooling1D)  (None, 185, 256)    0           ['conv1d_2[0][0]']               
                                                                                                  
 Protein-Feature-Matrix (InputL  [(None, 1500, 13)]  0           []                               
 ayer)                                                                                            
                                                                                                  
 Ligand-Adjacency-Matrix (Input  [(None, 70, 70)]    0           []                               
 Layer)                                                                                           
                                                                                                  
 Ligand-Feature-Matrix (InputLa  [(None, 70, 12)]    0           []                               
 yer)                                                                                             
                                                                                                  
 flatten (Flatten)              (None, 47360)        0           ['max_pooling1d_2[0][0]']        
                                                                                                  
 flatten_1 (Flatten)            (None, 19500)        0           ['Protein-Feature-Matrix[0][0]'] 
                                                                                                  
 flatten_2 (Flatten)            (None, 4900)         0           ['Ligand-Adjacency-Matrix[0][0]']
                                                                                                  
 flatten_3 (Flatten)            (None, 840)          0           ['Ligand-Feature-Matrix[0][0]']  
                                                                                                  
 dense (Dense)                  (None, 1024)         48497664    ['flatten[0][0]']                
                                                                                                  
 dense_2 (Dense)                (None, 512)          9984512     ['flatten_1[0][0]']              
                                                                                                  
 dense_4 (Dense)                (None, 64)           313664      ['flatten_2[0][0]']              
                                                                                                  
 dense_6 (Dense)                (None, 256)          215296      ['flatten_3[0][0]']              
                                                                                                  
 dense_1 (Dense)                (None, 512)          524800      ['dense[0][0]']                  
                                                                                                  
 dense_3 (Dense)                (None, 64)           32832       ['dense_2[0][0]']                
                                                                                                  
 dense_5 (Dense)                (None, 16)           1040        ['dense_4[0][0]']                
                                                                                                  
 dense_7 (Dense)                (None, 64)           16448       ['dense_6[0][0]']                
                                                                                                  
 concatenate (Concatenate)      (None, 656)          0           ['dense_1[0][0]',                
                                                                  'dense_3[0][0]',                
                                                                  'dense_5[0][0]',                
                                                                  'dense_7[0][0]']                
                                                                                                  
 dense_8 (Dense)                (None, 1024)         672768      ['concatenate[0][0]']            
                                                                                                  
 dense_9 (Dense)                (None, 512)          524800      ['dense_8[0][0]']                
                                                                                                  
 dense_10 (Dense)               (None, 64)           32832       ['dense_9[0][0]']                
                                                                                                  
 dense_11 (Dense)               (None, 1)            65          ['dense_10[0][0]']               
                                                                                                  
==================================================================================================
Total params: 67,392,593
Trainable params: 67,392,593
Non-trainable params: 0
__________________________________________________________________________________________________

Model: "model_4"
__________________________________________________________________________________________________
 Layer (type)                   Output Shape         Param #     Connected to                     
==================================================================================================
 Protein-Adjacency-Matrix (Inpu  [(None, 1500, 1500)  0          []                               
 tLayer)                        ]                                                                 
                                                                                                  
 conv1d (Conv1D)                (None, 1498, 1024)   4609024     ['Protein-Adjacency-Matrix[0][0]'
                                                                 ]                                
                                                                                                  
 max_pooling1d (MaxPooling1D)   (None, 749, 1024)    0           ['conv1d[0][0]']                 
                                                                                                  
 conv1d_1 (Conv1D)              (None, 747, 512)     1573376     ['max_pooling1d[0][0]']          
                                                                                                  
 max_pooling1d_1 (MaxPooling1D)  (None, 373, 512)    0           ['conv1d_1[0][0]']               
                                                                                                  
 conv1d_2 (Conv1D)              (None, 371, 256)     393472      ['max_pooling1d_1[0][0]']        
                                                                                                  
 max_pooling1d_2 (MaxPooling1D)  (None, 185, 256)    0           ['conv1d_2[0][0]']               
                                                                                                  
 Protein-Feature-Matrix (InputL  [(None, 1500, 13)]  0           []                               
 ayer)                                                                                            
                                                                                                  
 Ligand-Adjacency-Matrix (Input  [(None, 70, 70)]    0           []                               
 Layer)                                                                                           
                                                                                                  
 Ligand-Feature-Matrix (InputLa  [(None, 70, 12)]    0           []                               
 yer)                                                                                             
                                                                                                  
 flatten (Flatten)              (None, 47360)        0           ['max_pooling1d_2[0][0]']        
                                                                                                  
 flatten_1 (Flatten)            (None, 19500)        0           ['Protein-Feature-Matrix[0][0]'] 
                                                                                                  
 flatten_2 (Flatten)            (None, 4900)         0           ['Ligand-Adjacency-Matrix[0][0]']
                                                                                                  
 flatten_3 (Flatten)            (None, 840)          0           ['Ligand-Feature-Matrix[0][0]']  
                                                                                                  
 dense (Dense)                  (None, 1024)         48497664    ['flatten[0][0]']                
                                                                                                  
 dense_2 (Dense)                (None, 512)          9984512     ['flatten_1[0][0]']              
                                                                                                  
 dense_4 (Dense)                (None, 64)           313664      ['flatten_2[0][0]']              
                                                                                                  
 dense_6 (Dense)                (None, 256)          215296      ['flatten_3[0][0]']              
                                                                                                  
 dense_1 (Dense)                (None, 512)          524800      ['dense[0][0]']                  
                                                                                                  
 dense_3 (Dense)                (None, 64)           32832       ['dense_2[0][0]']                
                                                                                                  
 dense_5 (Dense)                (None, 16)           1040        ['dense_4[0][0]']                
                                                                                                  
 dense_7 (Dense)                (None, 64)           16448       ['dense_6[0][0]']                
                                                                                                  
 concatenate (Concatenate)      (None, 656)          0           ['dense_1[0][0]',                
                                                                  'dense_3[0][0]',                
                                                                  'dense_5[0][0]',                
                                                                  'dense_7[0][0]']                
                                                                                                  
 dense_8 (Dense)                (None, 1024)         672768      ['concatenate[0][0]']            
                                                                                                  
 dense_9 (Dense)                (None, 512)          524800      ['dense_8[0][0]']                
                                                                                                  
 dense_10 (Dense)               (None, 64)           32832       ['dense_9[0][0]']                
                                                                                                  
 dense_11 (Dense)               (None, 1)            65          ['dense_10[0][0]']               
                                                                                                  
==================================================================================================
Total params: 67,392,593
Trainable params: 67,392,593
Non-trainable params: 0
__________________________________________________________________________________________________
…
